Model: "model"
__________________________________________________________________________________________________
Layer (type)                    Output Shape         Param #     Connected to                     
==================================================================================================
input_1 (InputLayer)            [(None, 600, 3)]     0                                            
__________________________________________________________________________________________________
conv1d (Conv1D)                 (None, 600, 8)       224         input_1[0][0]                    
__________________________________________________________________________________________________
leaky_re_lu (LeakyReLU)         (None, 600, 8)       0           conv1d[0][0]                     
__________________________________________________________________________________________________
batch_normalization (BatchNorma (None, 600, 8)       32          leaky_re_lu[0][0]                
__________________________________________________________________________________________________
max_pooling1d (MaxPooling1D)    (None, 300, 8)       0           batch_normalization[0][0]        
__________________________________________________________________________________________________
conv1d_1 (Conv1D)               (None, 300, 16)      912         max_pooling1d[0][0]              
__________________________________________________________________________________________________
leaky_re_lu_1 (LeakyReLU)       (None, 300, 16)      0           conv1d_1[0][0]                   
__________________________________________________________________________________________________
batch_normalization_1 (BatchNor (None, 300, 16)      64          leaky_re_lu_1[0][0]              
__________________________________________________________________________________________________
max_pooling1d_1 (MaxPooling1D)  (None, 150, 16)      0           batch_normalization_1[0][0]      
__________________________________________________________________________________________________
conv1d_2 (Conv1D)               (None, 150, 32)      2592        max_pooling1d_1[0][0]            
__________________________________________________________________________________________________
leaky_re_lu_2 (LeakyReLU)       (None, 150, 32)      0           conv1d_2[0][0]                   
__________________________________________________________________________________________________
batch_normalization_2 (BatchNor (None, 150, 32)      128         leaky_re_lu_2[0][0]              
__________________________________________________________________________________________________
max_pooling1d_2 (MaxPooling1D)  (None, 75, 32)       0           batch_normalization_2[0][0]      
__________________________________________________________________________________________________
conv1d_3 (Conv1D)               (None, 75, 64)       6208        max_pooling1d_2[0][0]            
__________________________________________________________________________________________________
leaky_re_lu_3 (LeakyReLU)       (None, 75, 64)       0           conv1d_3[0][0]                   
__________________________________________________________________________________________________
batch_normalization_3 (BatchNor (None, 75, 64)       256         leaky_re_lu_3[0][0]              
__________________________________________________________________________________________________
max_pooling1d_3 (MaxPooling1D)  (None, 25, 64)       0           batch_normalization_3[0][0]      
__________________________________________________________________________________________________
bidirectional (Bidirectional)   (None, 25, 32)       10368       max_pooling1d_3[0][0]            
__________________________________________________________________________________________________
up_sampling1d (UpSampling1D)    (None, 75, 32)       0           bidirectional[0][0]              
__________________________________________________________________________________________________
conv1d_transpose (Conv1DTranspo (None, 75, 64)       6208        up_sampling1d[0][0]              
__________________________________________________________________________________________________
add (Add)                       (None, 75, 64)       0           conv1d_3[0][0]                   
                                                                 conv1d_transpose[0][0]           
__________________________________________________________________________________________________
leaky_re_lu_4 (LeakyReLU)       (None, 75, 64)       0           add[0][0]                        
__________________________________________________________________________________________________
batch_normalization_4 (BatchNor (None, 75, 64)       256         leaky_re_lu_4[0][0]              
__________________________________________________________________________________________________
up_sampling1d_1 (UpSampling1D)  (None, 150, 64)      0           batch_normalization_4[0][0]      
__________________________________________________________________________________________________
conv1d_transpose_1 (Conv1DTrans (None, 150, 32)      10272       up_sampling1d_1[0][0]            
__________________________________________________________________________________________________
add_1 (Add)                     (None, 150, 32)      0           conv1d_2[0][0]                   
                                                                 conv1d_transpose_1[0][0]         
__________________________________________________________________________________________________
leaky_re_lu_5 (LeakyReLU)       (None, 150, 32)      0           add_1[0][0]                      
__________________________________________________________________________________________________
batch_normalization_5 (BatchNor (None, 150, 32)      128         leaky_re_lu_5[0][0]              
__________________________________________________________________________________________________
up_sampling1d_2 (UpSampling1D)  (None, 300, 32)      0           batch_normalization_5[0][0]      
__________________________________________________________________________________________________
conv1d_transpose_2 (Conv1DTrans (None, 300, 16)      3600        up_sampling1d_2[0][0]            
__________________________________________________________________________________________________
add_2 (Add)                     (None, 300, 16)      0           conv1d_1[0][0]                   
                                                                 conv1d_transpose_2[0][0]         
__________________________________________________________________________________________________
leaky_re_lu_6 (LeakyReLU)       (None, 300, 16)      0           add_2[0][0]                      
__________________________________________________________________________________________________
batch_normalization_6 (BatchNor (None, 300, 16)      64          leaky_re_lu_6[0][0]              
__________________________________________________________________________________________________
up_sampling1d_3 (UpSampling1D)  (None, 600, 16)      0           batch_normalization_6[0][0]      
__________________________________________________________________________________________________
conv1d_transpose_3 (Conv1DTrans (None, 600, 8)       904         up_sampling1d_3[0][0]            
__________________________________________________________________________________________________
leaky_re_lu_7 (LeakyReLU)       (None, 600, 8)       0           conv1d_transpose_3[0][0]         
__________________________________________________________________________________________________
batch_normalization_7 (BatchNor (None, 600, 8)       32          leaky_re_lu_7[0][0]              
__________________________________________________________________________________________________
conv1d_transpose_4 (Conv1DTrans (None, 600, 3)       171         batch_normalization_7[0][0]      
__________________________________________________________________________________________________
leaky_re_lu_8 (LeakyReLU)       (None, 600, 3)       0           conv1d_transpose_4[0][0]         
==================================================================================================
Total params: 42,419
Trainable params: 41,939
Non-trainable params: 480
__________________________________________________________________________________________________
Epoch 1/600
  1/293 [..............................] - ETA: 1:59:14 - loss: 1.2068
…
